…
I0112 12:56:56.868064  2796 net.cpp:339] The NetState phase (0) differed from the phase (1) specified by a rule in layer data
I0112 12:56:56.868080  2796 net.cpp:339] The NetState phase (0) differed from the phase (1) specified by a rule in layer accuracy
I0112 12:56:56.868130  2796 net.cpp:50] Initializing net from parameters: 
name: "LeNet"
state {
  phase: TRAIN
}
layer {
  name: "data"
  type: "Data"
  top: "data"
  top: "label"
  include {
    phase: TRAIN
  }
  transform_param {
    scale: 0.00390625
  }
  data_param {
    source: "examples/imagenet_own/C2GS_train_lmdb"
    batch_size: 10
    backend: LMDB
  }
}
layer {
  name: "conv1"
  type: "Convolution"
  bottom: "data"
  top: "conv1"
  param {
    lr_mult: 1
  }
  param {
    lr_mult: 2
  }
  convolution_param {
    num_output: 20
    kernel_size: 5
    stride: 1
    weight_filler {
      type: "xavier"
    }
    bias_filler {
      type: "constant"
    }
  }
}
layer {
  name: "pool1"
  type: "Pooling"
  bottom: "conv1"
  top: "pool1"
  pooling_param {
    pool: MAX
    kernel_size: 2
    stride: 2
  }
}
layer {
  name: "conv2"
  type: "Convolution"
  bottom: "pool1"
  top: "conv2"
  param {
    lr_mult: 1
  }
  param {
    lr_mult: 2
  }
  convolution_param {
    num_output: 50
    kernel_size: 5
    stride: 1
    weight_filler {
      type: "xavier"
    }
    bias_filler {
      type: "constant"
    }
  }
}
layer {
  name: "pool2"
  type: "Pooling"
  bottom: "conv2"
  top: "pool2"
  pooling_param {
    pool: MAX
    kernel_size: 2
    stride: 2
  }
}
layer {
  name: "ip1"
  type: "InnerProduct"
  bottom: "pool2"
  top: "ip1"
  param {
    lr_mult: 1
  }
  param {
    lr_mult: 2
  }
  inner_product_param {
    num_output: 2
    weight_filler {
      type: "xavier"
    }
    bias_filler {
      type: "constant"
    }
  }
}
layer {
  name: "relu1"
  type: "ReLU"
  bottom: "ip1"
  top: "ip1"
}
layer {
  name: "ip2"
  type: "InnerProduct"
  bottom: "ip1"
  top: "ip2"
  param {
    lr_mult: 1
  }
  param {
    lr_mult: 2
  }
  inner_product_param {
    num_output: 10
    weight_filler {
      type: "xavier"
    }
    bias_filler {
      type: "constant"
    }
  }
}
layer {
  name: "loss"
  type: "SoftmaxWithLoss"
  bottom: "ip2"
  bottom: "label"
  top: "loss"
}
I0112 12:56:56.868186  2796 layer_factory.hpp:76] Creating layer data
I0112 12:56:56.890964  2796 net.cpp:110] Creating Layer data
I0112 12:56:56.890992  2796 net.cpp:433] data -> data
I0112 12:56:56.891067  2802 db_lmdb.cpp:22] Opened lmdb examples/imagenet_own/C2GS_train_lmdb
I0112 12:56:56.897011  2796 net.cpp:433] data -> label
I0112 12:56:56.897059  2796 data_layer.cpp:44] output data size: 10,3,256,256
I0112 12:56:56.900202  2796 net.cpp:155] Setting up data
I0112 12:56:56.900238  2796 net.cpp:163] Top shape: 10 3 256 256 (1966080)
I0112 12:56:56.900244  2796 net.cpp:163] Top shape: 10 (10)
I0112 12:56:56.900251  2796 layer_factory.hpp:76] Creating layer conv1
I0112 12:56:56.900265  2796 net.cpp:110] Creating Layer conv1
I0112 12:56:56.900271  2796 net.cpp:477] conv1 <- data
I0112 12:56:56.900280  2796 net.cpp:433] conv1 -> conv1
I0112 12:56:56.901383  2796 net.cpp:155] Setting up conv1
I0112 12:56:56.901408  2796 net.cpp:163] Top shape: 10 20 252 252 (12700800)
I0112 12:56:56.901422  2796 layer_factory.hpp:76] Creating layer pool1
I0112 12:56:56.901430  2796 net.cpp:110] Creating Layer pool1
I0112 12:56:56.901434  2796 net.cpp:477] pool1 <- conv1
I0112 12:56:56.901438  2796 net.cpp:433] pool1 -> pool1
I0112 12:56:56.902108  2796 net.cpp:155] Setting up pool1
I0112 12:56:56.902117  2796 net.cpp:163] Top shape: 10 20 126 126 (3175200)
I0112 12:56:56.902125  2796 layer_factory.hpp:76] Creating layer conv2
I0112 12:56:56.902132  2796 net.cpp:110] Creating Layer conv2
I0112 12:56:56.902137  2796 net.cpp:477] conv2 <- pool1
I0112 12:56:56.902142  2796 net.cpp:433] conv2 -> conv2
I0112 12:56:56.902323  2796 net.cpp:155] Setting up conv2
I0112 12:56:56.902330  2796 net.cpp:163] Top shape: 10 50 122 122 (7442000)
I0112 12:56:56.902345  2796 layer_factory.hpp:76] Creating layer pool2
I0112 12:56:56.902351  2796 net.cpp:110] Creating Layer pool2
I0112 12:56:56.902354  2796 net.cpp:477] pool2 <- conv2
I0112 12:56:56.902359  2796 net.cpp:433] pool2 -> pool2
I0112 12:56:56.902365  2796 net.cpp:155] Setting up pool2
I0112 12:56:56.902369  2796 net.cpp:163] Top shape: 10 50 61 61 (1860500)
I0112 12:56:56.902372  2796 layer_factory.hpp:76] Creating layer ip1
I0112 12:56:56.902379  2796 net.cpp:110] Creating Layer ip1
I0112 12:56:56.902382  2796 net.cpp:477] ip1 <- pool2
I0112 12:56:56.902386  2796 net.cpp:433] ip1 -> ip1
I0112 12:56:56.904644  2796 net.cpp:155] Setting up ip1
I0112 12:56:56.904652  2796 net.cpp:163] Top shape: 10 2 (20)
I0112 12:56:56.904659  2796 layer_factory.hpp:76] Creating layer relu1
I0112 12:56:56.904664  2796 net.cpp:110] Creating Layer relu1
I0112 12:56:56.904669  2796 net.cpp:477] relu1 <- ip1
I0112 12:56:56.904672  2796 net.cpp:419] relu1 -> ip1 (in-place)
I0112 12:56:56.904678  2796 net.cpp:155] Setting up relu1
I0112 12:56:56.904681  2796 net.cpp:163] Top shape: 10 2 (20)
I0112 12:56:56.904685  2796 layer_factory.hpp:76] Creating layer ip2
I0112 12:56:56.904690  2796 net.cpp:110] Creating Layer ip2
I0112 12:56:56.904693  2796 net.cpp:477] ip2 <- ip1
I0112 12:56:56.904697  2796 net.cpp:433] ip2 -> ip2
I0112 12:56:56.904706  2796 net.cpp:155] Setting up ip2
I0112 12:56:56.904711  2796 net.cpp:163] Top shape: 10 10 (100)
I0112 12:56:56.904714  2796 layer_factory.hpp:76] Creating layer loss
I0112 12:56:56.904733  2796 net.cpp:110] Creating Layer loss
I0112 12:56:56.904738  2796 net.cpp:477] loss <- ip2
I0112 12:56:56.904742  2796 net.cpp:477] loss <- label
I0112 12:56:56.904747  2796 net.cpp:433] loss -> loss
I0112 12:56:56.904755  2796 layer_factory.hpp:76] Creating layer loss
I0112 12:56:56.904767  2796 net.cpp:155] Setting up loss
…
I0112 12:56:56.905077  2796 solver.cpp:186] Creating test net (#0) specified by net file: examples/imagenet_own/lenet_train_test.prototxt
I0112 12:56:56.905097  2796 net.cpp:339] The NetState phase (1) differed from the phase (0) specified by a rule in layer data
I0112 12:56:56.905161  2796 net.cpp:50] Initializing net from parameters: 
name: "LeNet"
state {
  phase: TEST
}
layer {
  name: "data"
  type: "Data"
  top: "data"
  top: "label"
  include {
    phase: TEST
  }
  transform_param {
    scale: 0.00390625
  }
  data_param {
    source: "examples/imagenet_own/C2GS_val_lmdb"
    batch_size: 10
    backend: LMDB
  }
}
layer {
  name: "conv1"
  type: "Convolution"
  bottom: "data"
  top: "conv1"
  param {
    lr_mult: 1
  }
  param {
    lr_mult: 2
  }
  convolution_param {
    num_output: 20
    kernel_size: 5
    stride: 1
    weight_filler {
      type: "xavier"
    }
    bias_filler {
      type: "constant"
    }
  }
}
layer {
  name: "pool1"
  type: "Pooling"
  bottom: "conv1"
  top: "pool1"
  pooling_param {
    pool: MAX
    kernel_size: 2
    stride: 2
  }
}
layer {
  name: "conv2"
  type: "Convolution"
  bottom: "pool1"
  top: "conv2"
  param {
    lr_mult: 1
  }
  param {
    lr_mult: 2
  }
  convolution_param {
    num_output: 50
    kernel_size: 5
    stride: 1
    weight_filler {
      type: "xavier"
    }
    bias_filler {
      type: "constant"
    }
  }
}
layer {
  name: "pool2"
  type: "Pooling"
  bottom: "conv2"
  top: "pool2"
  pooling_param {
    pool: MAX
    kernel_size: 2
    stride: 2
  }
}
layer {
  name: "ip1"
  type: "InnerProduct"
  bottom: "pool2"
  top: "ip1"
  param {
    lr_mult: 1
  }
  param {
    lr_mult: 2
  }
  inner_product_param {
    num_output: 2
    weight_filler {
      type: "xavier"
    }
    bias_filler {
      type: "constant"
    }
  }
}
layer {
  name: "relu1"
  type: "ReLU"
  bottom: "ip1"
  top: "ip1"
}
layer {
  name: "ip2"
  type: "InnerProduct"
  bottom: "ip1"
  top: "ip2"
  param {
    lr_mult: 1
  }
  param {
    lr_mult: 2
  }
  inner_product_param {
    num_output: 10
    weight_filler {
      type: "xavier"
    }
    bias_filler {
      type: "constant"
    }
  }
}
layer {
  name: "accuracy"
  type: "Accuracy"
  bottom: "ip2"
  bottom: "label"
  top: "accuracy"
  include {
    phase: TEST
  }
}
layer {
  name: "loss"
  type: "SoftmaxWithLoss"
  bottom: "ip2"
  bottom: "label"
  top: "loss"
}
I0112 12:56:56.905222  2796 layer_factory.hpp:76] Creating layer data
I0112 12:56:56.905261  2796 net.cpp:110] Creating Layer data
I0112 12:56:56.905268  2796 net.cpp:433] data -> data
I0112 12:56:56.905275  2796 net.cpp:433] data -> label
I0112 12:56:56.908347  2804 db_lmdb.cpp:22] Opened lmdb examples/imagenet_own/C2GS_val_lmdb
I0112 12:56:56.908512  2796 data_layer.cpp:44] output data size: 10,3,256,256
I0112 12:56:56.912381  2796 net.cpp:155] Setting up data
I0112 12:56:56.912436  2796 net.cpp:163] Top shape: 10 3 256 256 (1966080)
I0112 12:56:56.912443  2796 net.cpp:163] Top shape: 10 (10)
I0112 12:56:56.912449  2796 layer_factory.hpp:76] Creating layer label_data_1_split
I0112 12:56:56.912461  2796 net.cpp:110] Creating Layer label_data_1_split
I0112 12:56:56.912464  2796 net.cpp:477] label_data_1_split <- label
I0112 12:56:56.912470  2796 net.cpp:433] label_data_1_split -> label_data_1_split_0
I0112 12:56:56.912478  2796 net.cpp:433] label_data_1_split -> label_data_1_split_1
I0112 12:56:56.912485  2796 net.cpp:155] Setting up label_data_1_split
I0112 12:56:56.912489  2796 net.cpp:163] Top shape: 10 (10)
I0112 12:56:56.912492  2796 net.cpp:163] Top shape: 10 (10)
I0112 12:56:56.912497  2796 layer_factory.hpp:76] Creating layer conv1
I0112 12:56:56.912504  2796 net.cpp:110] Creating Layer conv1
I0112 12:56:56.912508  2796 net.cpp:477] conv1 <- data
I0112 12:56:56.912515  2796 net.cpp:433] conv1 -> conv1
I0112 12:56:56.912621  2796 net.cpp:155] Setting up conv1
I0112 12:56:56.912626  2796 net.cpp:163] Top shape: 10 20 252 252 (12700800)
I0112 12:56:56.912634  2796 layer_factory.hpp:76] Creating layer pool1
I0112 12:56:56.912642  2796 net.cpp:110] Creating Layer pool1
I0112 12:56:56.912645  2796 net.cpp:477] pool1 <- conv1
I0112 12:56:56.912649  2796 net.cpp:433] pool1 -> pool1
I0112 12:56:56.912657  2796 net.cpp:155] Setting up pool1
I0112 12:56:56.912662  2796 net.cpp:163] Top shape: 10 20 126 126 (3175200)
I0112 12:56:56.912665  2796 layer_factory.hpp:76] Creating layer conv2
I0112 12:56:56.912672  2796 net.cpp:110] Creating Layer conv2
I0112 12:56:56.912674  2796 net.cpp:477] conv2 <- pool1
I0112 12:56:56.912679  2796 net.cpp:433] conv2 -> conv2
I0112 12:56:56.916028  2796 net.cpp:155] Setting up conv2
I0112 12:56:56.916048  2796 net.cpp:163] Top shape: 10 50 122 122 (7442000)
I0112 12:56:56.916057  2796 layer_factory.hpp:76] Creating layer pool2
I0112 12:56:56.916066  2796 net.cpp:110] Creating Layer pool2
I0112 12:56:56.916071  2796 net.cpp:477] pool2 <- conv2
I0112 12:56:56.916084  2796 net.cpp:433] pool2 -> pool2
I0112 12:56:56.916092  2796 net.cpp:155] Setting up pool2
I0112 12:56:56.916096  2796 net.cpp:163] Top shape: 10 50 61 61 (1860500)
I0112 12:56:56.916100  2796 layer_factory.hpp:76] Creating layer ip1
I0112 12:56:56.916108  2796 net.cpp:110] Creating Layer ip1
I0112 12:56:56.916111  2796 net.cpp:477] ip1 <- pool2
I0112 12:56:56.916122  2796 net.cpp:433] ip1 -> ip1
I0112 12:56:56.918414  2796 net.cpp:155] Setting up ip1
I0112 12:56:56.918431  2796 net.cpp:163] Top shape: 10 2 (20)
I0112 12:56:56.918440  2796 layer_factory.hpp:76] Creating layer relu1
I0112 12:56:56.918447  2796 net.cpp:110] Creating Layer relu1
I0112 12:56:56.918450  2796 net.cpp:477] relu1 <- ip1
I0112 12:56:56.918457  2796 net.cpp:419] relu1 -> ip1 (in-place)
I0112 12:56:56.918463  2796 net.cpp:155] Setting up relu1
I0112 12:56:56.918467  2796 net.cpp:163] Top shape: 10 2 (20)
I0112 12:56:56.918470  2796 layer_factory.hpp:76] Creating layer ip2
I0112 12:56:56.918478  2796 net.cpp:110] Creating Layer ip2
I0112 12:56:56.918480  2796 net.cpp:477] ip2 <- ip1
I0112 12:56:56.918486  2796 net.cpp:433] ip2 -> ip2
I0112 12:56:56.918496  2796 net.cpp:155] Setting up ip2
I0112 12:56:56.918500  2796 net.cpp:163] Top shape: 10 10 (100)
I0112 12:56:56.918505  2796 layer_factory.hpp:76] Creating layer ip2_ip2_0_split
I0112 12:56:56.918510  2796 net.cpp:110] Creating Layer ip2_ip2_0_split
I0112 12:56:56.918514  2796 net.cpp:477] ip2_ip2_0_split <- ip2
I0112 12:56:56.918517  2796 net.cpp:433] ip2_ip2_0_split -> ip2_ip2_0_split_0
I0112 12:56:56.918522  2796 net.cpp:433] ip2_ip2_0_split -> ip2_ip2_0_split_1
I0112 12:56:56.918527  2796 net.cpp:155] Setting up ip2_ip2_0_split
I0112 12:56:56.918530  2796 net.cpp:163] Top shape: 10 10 (100)
I0112 12:56:56.918534  2796 net.cpp:163] Top shape: 10 10 (100)
I0112 12:56:56.918537  2796 layer_factory.hpp:76] Creating layer accuracy
I0112 12:56:56.918545  2796 net.cpp:110] Creating Layer accuracy
I0112 12:56:56.918547  2796 net.cpp:477] accuracy <- ip2_ip2_0_split_0
I0112 12:56:56.918551  2796 net.cpp:477] accuracy <- label_data_1_split_0
I0112 12:56:56.918555  2796 net.cpp:433] accuracy -> accuracy
I0112 12:56:56.918560  2796 net.cpp:155] Setting up accuracy
…
